NeuralNetworkModel/mnist_conv_spilt.tflite (tflite, 3656 bytes, 3 tensors)

sequential/quant_conv2d/Conv2D;sequential/quant_conv2d/LastValueQuant/FakeQuantWithMinMaxVarsPerChannel i1 [3, 3, 3, 1]
000000 3e 23 17 7f 79 3b 71 2f 3d d8 4a 61 b7 81 b4 14
       62 35 23 127 121 59 113 47 61 -40 74 97 -73 -127 -76 20
000010 da cf d4 ab d3 d8 b2 f7 81 a5 e3
       -38 -49 -44 -85 -45 -40 -78 -9 -127 -91 -29

sequential/quant_conv2d_1/Conv2D;sequential/quant_conv2d_1/LastValueQuant/FakeQuantWithMinMaxVarsPerChannel i1 [2, 3, 3, 3]
000000 d8 be e5 0f de 38 01 11 fd 32 cc b2 f9 4f f8 e1
       -40 -66 -27 15 -34 56 1 17 -3 50 -52 -78 -7 79 -8 -31
000010 4f de 4c d2 dd e9 6c cf eb 7f d1 31 f5 8c fd 7f
       79 -34 76 -46 -35 -23 108 -49 -21 127 -47 49 -11 -116 -3 127
000020 db 48 60 83 2a 6e cc 10 5c a7 0a 48 d9 ae 71 2b
       -37 72 96 -125 42 110 -52 16 92 -89 10 72 -39 -82 113 43
000030 bf 28 16 d8 e1 f6
       -65 40 22 -40 -31 -10

sequential/quant_conv2d_2/Conv2D;sequential/quant_conv2d_2/LastValueQuant/FakeQuantWithMinMaxVarsPerChannel i1 [10, 2, 2, 2]
000000 1c b7 3f 7f 06 c7 bd d2 81 dc 20 f0 ca f5 e1 0e
       28 -73 63 127 6 -57 -67 -46 -127 -36 32 -16 -54 -11 -31 14
000010 ff 7f d2 bb 25 d6 37 e2 81 57 e3 e2 6c f1 e1 2e
       -1 127 -46 -69 37 -42 55 -30 -127 87 -29 -30 108 -15 -31 46
000020 59 aa cb 81 b4 7b f4 e4 bf ea 7f 44 3e 15 94 c6
       89 -86 -53 -127 -76 123 -12 -28 -65 -22 127 68 62 21 -108 -58
000030 e0 49 7f 94 2e 06 c8 89 5e e7 8f f8 81 00 2b 45
       -32 73 127 -108 46 6 -56 -119 94 -25 -113 -8 -127 0 43 69
000040 42 20 cf fa 81 d8 63 2b 28 81 c0 33 b8 69 05 01
       66 32 -49 -6 -127 -40 99 43 40 -127 -64 51 -72 105 5 1
